…
I0423 10:09:41.787932 20339 net.cpp:294] The NetState phase (0) differed from the phase (1) specified by a rule in layer accuracy_at_5
I0423 10:09:41.788046 20339 net.cpp:51] Initializing net from parameters: 
state {
  phase: TRAIN
  level: 0
  stage: ""
}
layer {
  name: "data"
  type: "Data"
  top: "data"
  top: "label"
  include {
    phase: TRAIN
  }
  transform_param {
    mirror: true
    crop_size: 227
    mean_file: "/home/kb/airplanes_caffe/data/lmdb/mean.binaryproto"
  }
  data_param {
    source: "/home/kb/airplanes_caffe/data/lmdb/train_lmdb"
    batch_size: 100
    backend: LMDB
  }
}
layer {
  name: "conv1"
  type: "Convolution"
  bottom: "data"
  top: "conv1"
  param {
    lr_mult: 1
    decay_mult: 1
  }
  param {
    lr_mult: 2
    decay_mult: 0
  }
  convolution_param {
    num_output: 96
    kernel_size: 11
    stride: 4
    weight_filler {
      type: "gaussian"
      std: 0.01
    }
    bias_filler {
      type: "constant"
      value: 0
    }
  }
}
layer {
  name: "relu1"
  type: "ReLU"
  bottom: "conv1"
  top: "conv1"
}
layer {
  name: "norm1"
  type: "LRN"
  bottom: "conv1"
  top: "norm1"
  lrn_param {
    local_size: 5
    alpha: 0.0001
    beta: 0.75
  }
}
layer {
  name: "pool1"
  type: "Pooling"
  bottom: "norm1"
  top: "pool1"
  pooling_param {
    pool: MAX
    kernel_size: 3
    stride: 2
  }
}
layer {
  name: "conv2"
  type: "Convolution"
  bottom: "pool1"
  top: "conv2"
  param {
    lr_mult: 1
    decay_mult: 1
  }
  param {
    lr_mult: 2
    decay_mult: 0
  }
  convolution_param {
    num_output: 256
    pad: 2
    kernel_size: 5
    group: 2
    weight_filler {
      type: "gaussian"
      std: 0.01
    }
    bias_filler {
      type: "constant"
      value: 0.1
    }
  }
}
layer {
  name: "relu2"
  type: "ReLU"
  bottom: "conv2"
  top: "conv2"
}
layer {
  name: "norm2"
  type: "LRN"
  bottom: "conv2"
  top: "norm2"
  lrn_param {
    local_size: 5
    alpha: 0.0001
    beta: 0.75
  }
}
layer {
  name: "pool2"
  type: "Pooling"
  bottom: "norm2"
  top: "pool2"
  pooling_param {
    pool: MAX
    kernel_size: 3
    stride: 2
  }
}
layer {
  name: "conv3"
  type: "Convolution"
  bottom: "pool2"
  top: "conv3"
  param {
    lr_mult: 1
    decay_mult: 1
  }
  param {
    lr_mult: 2
    decay_mult: 0
  }
  convolution_param {
    num_output: 384
    pad: 1
    kernel_size: 3
    weight_filler {
      type: "gaussian"
      std: 0.01
    }
    bias_filler {
      type: "constant"
      value: 0
    }
  }
}
layer {
  name: "relu3"
  type: "ReLU"
  bottom: "conv3"
  top: "conv3"
}
layer {
  name: "conv4"
  type: "Convolution"
  bottom: "conv3"
  top: "conv4"
  param {
    lr_mult: 1
    decay_mult: 1
  }
  param {
    lr_mult: 2
    decay_mult: 0
  }
  convolution_param {
    num_output: 384
    pad: 1
    kernel_size: 3
    group: 2
    weight_filler {
      type: "gaussian"
      std: 0.01
    }
    bias_filler {
      type: "constant"
      value: 0.1
    }
  }
}
layer {
  name: "relu4"
  type: "ReLU"
  bottom: "conv4"
  top: "conv4"
}
layer {
  name: "conv5"
  type: "Convolution"
  bottom: "conv4"
  top: "conv5"
  param {
    lr_mult: 1
    decay_mult: 1
  }
  param {
    lr_mult: 2
    decay_mult: 0
  }
  convolution_param {
    num_output: 256
    pad: 1
    kernel_size: 3
    group: 2
    weight_filler {
      type: "gaussian"
      std: 0.01
    }
    bias_filler {
      type: "constant"
      value: 0.1
    }
  }
}
layer {
  name: "relu5"
  type: "ReLU"
  bottom: "conv5"
  top: "conv5"
}
layer {
  name: "pool5"
  type: "Pooling"
  bottom: "conv5"
  top: "pool5"
  pooling_param {
    pool: MAX
    kernel_size: 3
    stride: 2
  }
}
layer {
  name: "fc6"
  type: "InnerProduct"
  bottom: "pool5"
  top: "fc6"
  param {
    lr_mult: 1
    decay_mult: 1
  }
  param {
    lr_mult: 2
    decay_mult: 0
  }
  inner_product_param {
    num_output: 4096
    weight_filler {
      type: "gaussian"
      std: 0.005
    }
    bias_filler {
      type: "constant"
      value: 0.1
    }
  }
}
layer {
  name: "relu6"
  type: "ReLU"
  bottom: "fc6"
  top: "fc6"
}
layer {
  name: "drop6"
  type: "Dropout"
  bottom: "fc6"
  top: "fc6"
  dropout_param {
    dropout_ratio: 0.5
  }
}
layer {
  name: "fc7"
  type: "InnerProduct"
  bottom: "fc6"
  top: "fc7"
  param {
    lr_mult: 1
    decay_mult: 1
  }
  param {
    lr_mult: 2
    decay_mult: 0
  }
  inner_product_param {
    num_output: 4096
    weight_filler {
      type: "gaussian"
      std: 0.005
    }
    bias_filler {
      type: "constant"
      value: 0.1
    }
  }
}
layer {
  name: "relu7"
  type: "ReLU"
  bottom: "fc7"
  top: "fc7"
}
layer {
  name: "drop7"
  type: "Dropout"
  bottom: "fc7"
  top: "fc7"
  dropout_param {
    dropout_ratio: 0.5
  }
}
layer {
  name: "fc8_airplanes"
  type: "InnerProduct"
  bottom: "fc7"
  top: "fc8_airplanes"
  param {
    lr_mult: 1
    decay_mult: 1
  }
  param {
    lr_mult: 2
    decay_mult: 0
  }
  inner_product_param {
    num_output: 70
    weight_filler {
      type: "gaussian"
      std: 0.01
    }
    bias_filler {
      type: "constant"
      value: 0
    }
  }
}
layer {
  name: "loss"
  type: "SoftmaxWithLoss"
  bottom: "fc8_airplanes"
  bottom: "label"
  top: "loss"
}
I0423 10:09:41.788166 20339 layer_factory.hpp:77] Creating layer data
I0423 10:09:41.788259 20339 db_lmdb.cpp:35] Opened lmdb /home/kb/airplanes_caffe/data/lmdb/train_lmdb
I0423 10:09:41.788280 20339 net.cpp:84] Creating Layer data
I0423 10:09:41.788288 20339 net.cpp:380] data -> data
I0423 10:09:41.788311 20339 net.cpp:380] data -> label
I0423 10:09:41.788326 20339 data_transformer.cpp:25] Loading mean file from: /home/kb/airplanes_caffe/data/lmdb/mean.binaryproto
I0423 10:09:41.790611 20339 data_layer.cpp:45] output data size: 100,3,227,227
I0423 10:09:41.882244 20339 net.cpp:122] Setting up data
I0423 10:09:41.882292 20339 net.cpp:129] Top shape: 100 3 227 227 (15458700)
I0423 10:09:41.882305 20339 net.cpp:129] Top shape: 100 (100)
I0423 10:09:41.882313 20339 net.cpp:137] Memory required for data: 61835200
I0423 10:09:41.882325 20339 layer_factory.hpp:77] Creating layer conv1
I0423 10:09:41.882350 20339 net.cpp:84] Creating Layer conv1
I0423 10:09:41.882356 20339 net.cpp:406] conv1 <- data
I0423 10:09:41.882372 20339 net.cpp:380] conv1 -> conv1
I0423 10:09:42.186590 20339 net.cpp:122] Setting up conv1
I0423 10:09:42.186615 20339 net.cpp:129] Top shape: 100 96 55 55 (29040000)
I0423 10:09:42.186619 20339 net.cpp:137] Memory required for data: 177995200
I0423 10:09:42.186635 20339 layer_factory.hpp:77] Creating layer relu1
I0423 10:09:42.186653 20339 net.cpp:84] Creating Layer relu1
I0423 10:09:42.186657 20339 net.cpp:406] relu1 <- conv1
I0423 10:09:42.186661 20339 net.cpp:367] relu1 -> conv1 (in-place)
I0423 10:09:42.187005 20339 net.cpp:122] Setting up relu1
I0423 10:09:42.187012 20339 net.cpp:129] Top shape: 100 96 55 55 (29040000)
I0423 10:09:42.187026 20339 net.cpp:137] Memory required for data: 294155200
I0423 10:09:42.187028 20339 layer_factory.hpp:77] Creating layer norm1
I0423 10:09:42.187046 20339 net.cpp:84] Creating Layer norm1
I0423 10:09:42.187047 20339 net.cpp:406] norm1 <- conv1
I0423 10:09:42.187052 20339 net.cpp:380] norm1 -> norm1
I0423 10:09:42.187407 20339 net.cpp:122] Setting up norm1
I0423 10:09:42.187413 20339 net.cpp:129] Top shape: 100 96 55 55 (29040000)
I0423 10:09:42.187417 20339 net.cpp:137] Memory required for data: 410315200
I0423 10:09:42.187418 20339 layer_factory.hpp:77] Creating layer pool1
I0423 10:09:42.187425 20339 net.cpp:84] Creating Layer pool1
I0423 10:09:42.187427 20339 net.cpp:406] pool1 <- norm1
I0423 10:09:42.187430 20339 net.cpp:380] pool1 -> pool1
I0423 10:09:42.187470 20339 net.cpp:122] Setting up pool1
I0423 10:09:42.187484 20339 net.cpp:129] Top shape: 100 96 27 27 (6998400)
I0423 10:09:42.187486 20339 net.cpp:137] Memory required for data: 438308800
I0423 10:09:42.187489 20339 layer_factory.hpp:77] Creating layer conv2
I0423 10:09:42.187496 20339 net.cpp:84] Creating Layer conv2
I0423 10:09:42.187499 20339 net.cpp:406] conv2 <- pool1
I0423 10:09:42.187501 20339 net.cpp:380] conv2 -> conv2
I0423 10:09:42.196591 20339 net.cpp:122] Setting up conv2
I0423 10:09:42.196600 20339 net.cpp:129] Top shape: 100 256 27 27 (18662400)
I0423 10:09:42.196602 20339 net.cpp:137] Memory required for data: 512958400
I0423 10:09:42.196609 20339 layer_factory.hpp:77] Creating layer relu2
I0423 10:09:42.196614 20339 net.cpp:84] Creating Layer relu2
I0423 10:09:42.196616 20339 net.cpp:406] relu2 <- conv2
I0423 10:09:42.196619 20339 net.cpp:367] relu2 -> conv2 (in-place)
I0423 10:09:42.196768 20339 net.cpp:122] Setting up relu2
I0423 10:09:42.196774 20339 net.cpp:129] Top shape: 100 256 27 27 (18662400)
I0423 10:09:42.196776 20339 net.cpp:137] Memory required for data: 587608000
I0423 10:09:42.196779 20339 layer_factory.hpp:77] Creating layer norm2
I0423 10:09:42.196784 20339 net.cpp:84] Creating Layer norm2
I0423 10:09:42.196785 20339 net.cpp:406] norm2 <- conv2
I0423 10:09:42.196789 20339 net.cpp:380] norm2 -> norm2
I0423 10:09:42.197166 20339 net.cpp:122] Setting up norm2
I0423 10:09:42.197173 20339 net.cpp:129] Top shape: 100 256 27 27 (18662400)
I0423 10:09:42.197186 20339 net.cpp:137] Memory required for data: 662257600
I0423 10:09:42.197188 20339 layer_factory.hpp:77] Creating layer pool2
I0423 10:09:42.197196 20339 net.cpp:84] Creating Layer pool2
I0423 10:09:42.197197 20339 net.cpp:406] pool2 <- norm2
I0423 10:09:42.197201 20339 net.cpp:380] pool2 -> pool2
I0423 10:09:42.197224 20339 net.cpp:122] Setting up pool2
I0423 10:09:42.197238 20339 net.cpp:129] Top shape: 100 256 13 13 (4326400)
I0423 10:09:42.197240 20339 net.cpp:137] Memory required for data: 679563200
I0423 10:09:42.197242 20339 layer_factory.hpp:77] Creating layer conv3
I0423 10:09:42.197259 20339 net.cpp:84] Creating Layer conv3
I0423 10:09:42.197262 20339 net.cpp:406] conv3 <- pool2
I0423 10:09:42.197265 20339 net.cpp:380] conv3 -> conv3
I0423 10:09:42.219208 20339 net.cpp:122] Setting up conv3
I0423 10:09:42.219224 20339 net.cpp:129] Top shape: 100 384 13 13 (6489600)
I0423 10:09:42.219228 20339 net.cpp:137] Memory required for data: 705521600
I0423 10:09:42.219236 20339 layer_factory.hpp:77] Creating layer relu3
I0423 10:09:42.219244 20339 net.cpp:84] Creating Layer relu3
I0423 10:09:42.219246 20339 net.cpp:406] relu3 <- conv3
I0423 10:09:42.219260 20339 net.cpp:367] relu3 -> conv3 (in-place)
I0423 10:09:42.219396 20339 net.cpp:122] Setting up relu3
I0423 10:09:42.219403 20339 net.cpp:129] Top shape: 100 384 13 13 (6489600)
I0423 10:09:42.219404 20339 net.cpp:137] Memory required for data: 731480000
I0423 10:09:42.219406 20339 layer_factory.hpp:77] Creating layer conv4
I0423 10:09:42.219414 20339 net.cpp:84] Creating Layer conv4
I0423 10:09:42.219416 20339 net.cpp:406] conv4 <- conv3
I0423 10:09:42.219421 20339 net.cpp:380] conv4 -> conv4
I0423 10:09:42.236186 20339 net.cpp:122] Setting up conv4
I0423 10:09:42.236207 20339 net.cpp:129] Top shape: 100 384 13 13 (6489600)
I0423 10:09:42.236209 20339 net.cpp:137] Memory required for data: 757438400
I0423 10:09:42.236214 20339 layer_factory.hpp:77] Creating layer relu4
I0423 10:09:42.236218 20339 net.cpp:84] Creating Layer relu4
I0423 10:09:42.236220 20339 net.cpp:406] relu4 <- conv4
I0423 10:09:42.236227 20339 net.cpp:367] relu4 -> conv4 (in-place)
I0423 10:09:42.236580 20339 net.cpp:122] Setting up relu4
I0423 10:09:42.236588 20339 net.cpp:129] Top shape: 100 384 13 13 (6489600)
I0423 10:09:42.236590 20339 net.cpp:137] Memory required for data: 783396800
I0423 10:09:42.236593 20339 layer_factory.hpp:77] Creating layer conv5
I0423 10:09:42.236600 20339 net.cpp:84] Creating Layer conv5
I0423 10:09:42.236603 20339 net.cpp:406] conv5 <- conv4
I0423 10:09:42.236606 20339 net.cpp:380] conv5 -> conv5
I0423 10:09:42.249786 20339 net.cpp:122] Setting up conv5
I0423 10:09:42.249810 20339 net.cpp:129] Top shape: 100 256 13 13 (4326400)
I0423 10:09:42.249814 20339 net.cpp:137] Memory required for data: 800702400
I0423 10:09:42.249824 20339 layer_factory.hpp:77] Creating layer relu5
I0423 10:09:42.249840 20339 net.cpp:84] Creating Layer relu5
I0423 10:09:42.249842 20339 net.cpp:406] relu5 <- conv5
I0423 10:09:42.249847 20339 net.cpp:367] relu5 -> conv5 (in-place)
I0423 10:09:42.250250 20339 net.cpp:122] Setting up relu5
I0423 10:09:42.250259 20339 net.cpp:129] Top shape: 100 256 13 13 (4326400)
I0423 10:09:42.250262 20339 net.cpp:137] Memory required for data: 818008000
I0423 10:09:42.250264 20339 layer_factory.hpp:77] Creating layer pool5
I0423 10:09:42.250270 20339 net.cpp:84] Creating Layer pool5
I0423 10:09:42.250272 20339 net.cpp:406] pool5 <- conv5
I0423 10:09:42.250277 20339 net.cpp:380] pool5 -> pool5
I0423 10:09:42.250314 20339 net.cpp:122] Setting up pool5
I0423 10:09:42.250320 20339 net.cpp:129] Top shape: 100 256 6 6 (921600)
I0423 10:09:42.250322 20339 net.cpp:137] Memory required for data: 821694400
I0423 10:09:42.250324 20339 layer_factory.hpp:77] Creating layer fc6
I0423 10:09:42.250335 20339 net.cpp:84] Creating Layer fc6
I0423 10:09:42.250339 20339 net.cpp:406] fc6 <- pool5
I0423 10:09:42.250342 20339 net.cpp:380] fc6 -> fc6
I0423 10:09:43.107559 20339 net.cpp:122] Setting up fc6
I0423 10:09:43.107583 20339 net.cpp:129] Top shape: 100 4096 (409600)
I0423 10:09:43.107585 20339 net.cpp:137] Memory required for data: 823332800
I0423 10:09:43.107592 20339 layer_factory.hpp:77] Creating layer relu6
I0423 10:09:43.107600 20339 net.cpp:84] Creating Layer relu6
I0423 10:09:43.107604 20339 net.cpp:406] relu6 <- fc6
I0423 10:09:43.107620 20339 net.cpp:367] relu6 -> fc6 (in-place)
I0423 10:09:43.107810 20339 net.cpp:122] Setting up relu6
I0423 10:09:43.107816 20339 net.cpp:129] Top shape: 100 4096 (409600)
I0423 10:09:43.107818 20339 net.cpp:137] Memory required for data: 824971200
I0423 10:09:43.107820 20339 layer_factory.hpp:77] Creating layer drop6
I0423 10:09:43.107830 20339 net.cpp:84] Creating Layer drop6
I0423 10:09:43.107831 20339 net.cpp:406] drop6 <- fc6
I0423 10:09:43.107834 20339 net.cpp:367] drop6 -> fc6 (in-place)
I0423 10:09:43.107868 20339 net.cpp:122] Setting up drop6
I0423 10:09:43.107873 20339 net.cpp:129] Top shape: 100 4096 (409600)
I0423 10:09:43.107874 20339 net.cpp:137] Memory required for data: 826609600
I0423 10:09:43.107877 20339 layer_factory.hpp:77] Creating layer fc7
I0423 10:09:43.107883 20339 net.cpp:84] Creating Layer fc7
I0423 10:09:43.107885 20339 net.cpp:406] fc7 <- fc6
I0423 10:09:43.107890 20339 net.cpp:380] fc7 -> fc7
I0423 10:09:43.489588 20339 net.cpp:122] Setting up fc7
I0423 10:09:43.489610 20339 net.cpp:129] Top shape: 100 4096 (409600)
I0423 10:09:43.489614 20339 net.cpp:137] Memory required for data: 828248000
I0423 10:09:43.489619 20339 layer_factory.hpp:77] Creating layer relu7
I0423 10:09:43.489627 20339 net.cpp:84] Creating Layer relu7
I0423 10:09:43.489630 20339 net.cpp:406] relu7 <- fc7
I0423 10:09:43.489634 20339 net.cpp:367] relu7 -> fc7 (in-place)
I0423 10:09:43.490108 20339 net.cpp:122] Setting up relu7
I0423 10:09:43.490115 20339 net.cpp:129] Top shape: 100 4096 (409600)
I0423 10:09:43.490126 20339 net.cpp:137] Memory required for data: 829886400
I0423 10:09:43.490128 20339 layer_factory.hpp:77] Creating layer drop7
I0423 10:09:43.490134 20339 net.cpp:84] Creating Layer drop7
I0423 10:09:43.490145 20339 net.cpp:406] drop7 <- fc7
I0423 10:09:43.490149 20339 net.cpp:367] drop7 -> fc7 (in-place)
I0423 10:09:43.490171 20339 net.cpp:122] Setting up drop7
I0423 10:09:43.490176 20339 net.cpp:129] Top shape: 100 4096 (409600)
I0423 10:09:43.490190 20339 net.cpp:137] Memory required for data: 831524800
I0423 10:09:43.490192 20339 layer_factory.hpp:77] Creating layer fc8_airplanes
I0423 10:09:43.490197 20339 net.cpp:84] Creating Layer fc8_airplanes
I0423 10:09:43.490200 20339 net.cpp:406] fc8_airplanes <- fc7
I0423 10:09:43.490202 20339 net.cpp:380] fc8_airplanes -> fc8_airplanes
I0423 10:09:43.496840 20339 net.cpp:122] Setting up fc8_airplanes
I0423 10:09:43.496847 20339 net.cpp:129] Top shape: 100 70 (7000)
I0423 10:09:43.496850 20339 net.cpp:137] Memory required for data: 831552800
I0423 10:09:43.496853 20339 layer_factory.hpp:77] Creating layer loss
I0423 10:09:43.496860 20339 net.cpp:84] Creating Layer loss
I0423 10:09:43.496863 20339 net.cpp:406] loss <- fc8_airplanes
I0423 10:09:43.496865 20339 net.cpp:406] loss <- label
I0423 10:09:43.496881 20339 net.cpp:380] loss -> loss
I0423 10:09:43.496891 20339 layer_factory.hpp:77] Creating layer loss
…
I0423 10:09:43.497906 20339 solver.cpp:172] Creating test net (#0) specified by net file: /home/kb/airplanes_caffe/AlexNet/train_val.prototxt
I0423 10:09:43.497962 20339 net.cpp:294] The NetState phase (1) differed from the phase (0) specified by a rule in layer data
I0423 10:09:43.498083 20339 net.cpp:51] Initializing net from parameters: 
state {
  phase: TEST
}
layer {
  name: "data"
  type: "Data"
  top: "data"
  top: "label"
  include {
    phase: TEST
  }
  transform_param {
    crop_size: 227
    mean_file: "/home/kb/airplanes_caffe/data/lmdb/mean.binaryproto"
  }
  data_param {
    source: "/home/kb/airplanes_caffe/data/lmdb/val_lmdb"
    batch_size: 100
    backend: LMDB
  }
}
layer {
  name: "conv1"
  type: "Convolution"
  bottom: "data"
  top: "conv1"
  param {
    lr_mult: 1
    decay_mult: 1
  }
  param {
    lr_mult: 2
    decay_mult: 0
  }
  convolution_param {
    num_output: 96
    kernel_size: 11
    stride: 4
    weight_filler {
      type: "gaussian"
      std: 0.01
    }
    bias_filler {
      type: "constant"
      value: 0
    }
  }
}
layer {
  name: "relu1"
  type: "ReLU"
  bottom: "conv1"
  top: "conv1"
}
layer {
  name: "norm1"
  type: "LRN"
  bottom: "conv1"
  top: "norm1"
  lrn_param {
    local_size: 5
    alpha: 0.0001
    beta: 0.75
  }
}
layer {
  name: "pool1"
  type: "Pooling"
  bottom: "norm1"
  top: "pool1"
  pooling_param {
    pool: MAX
    kernel_size: 3
    stride: 2
  }
}
layer {
  name: "conv2"
  type: "Convolution"
  bottom: "pool1"
  top: "conv2"
  param {
    lr_mult: 1
    decay_mult: 1
  }
  param {
    lr_mult: 2
    decay_mult: 0
  }
  convolution_param {
    num_output: 256
    pad: 2
    kernel_size: 5
    group: 2
    weight_filler {
      type: "gaussian"
      std: 0.01
    }
    bias_filler {
      type: "constant"
      value: 0.1
    }
  }
}
layer {
  name: "relu2"
  type: "ReLU"
  bottom: "conv2"
  top: "conv2"
}
layer {
  name: "norm2"
  type: "LRN"
  bottom: "conv2"
  top: "norm2"
  lrn_param {
    local_size: 5
    alpha: 0.0001
    beta: 0.75
  }
}
layer {
  name: "pool2"
  type: "Pooling"
  bottom: "norm2"
  top: "pool2"
  pooling_param {
    pool: MAX
    kernel_size: 3
    stride: 2
  }
}
layer {
  name: "conv3"
  type: "Convolution"
  bottom: "pool2"
  top: "conv3"
  param {
    lr_mult: 1
    decay_mult: 1
  }
  param {
    lr_mult: 2
    decay_mult: 0
  }
  convolution_param {
    num_output: 384
    pad: 1
    kernel_size: 3
    weight_filler {
      type: "gaussian"
      std: 0.01
    }
    bias_filler {
      type: "constant"
      value: 0
    }
  }
}
layer {
  name: "relu3"
  type: "ReLU"
  bottom: "conv3"
  top: "conv3"
}
layer {
  name: "conv4"
  type: "Convolution"
  bottom: "conv3"
  top: "conv4"
  param {
    lr_mult: 1
    decay_mult: 1
  }
  param {
    lr_mult: 2
    decay_mult: 0
  }
  convolution_param {
    num_output: 384
    pad: 1
    kernel_size: 3
    group: 2
    weight_filler {
      type: "gaussian"
      std: 0.01
    }
    bias_filler {
      type: "constant"
      value: 0.1
    }
  }
}
layer {
  name: "relu4"
  type: "ReLU"
  bottom: "conv4"
  top: "conv4"
}
layer {
  name: "conv5"
  type: "Convolution"
  bottom: "conv4"
  top: "conv5"
  param {
    lr_mult: 1
    decay_mult: 1
  }
  param {
    lr_mult: 2
    decay_mult: 0
  }
  convolution_param {
    num_output: 256
    pad: 1
    kernel_size: 3
    group: 2
    weight_filler {
      type: "gaussian"
      std: 0.01
    }
    bias_filler {
      type: "constant"
      value: 0.1
    }
  }
}
layer {
  name: "relu5"
  type: "ReLU"
  bottom: "conv5"
  top: "conv5"
}
layer {
  name: "pool5"
  type: "Pooling"
  bottom: "conv5"
  top: "pool5"
  pooling_param {
    pool: MAX
    kernel_size: 3
    stride: 2
  }
}
layer {
  name: "fc6"
  type: "InnerProduct"
  bottom: "pool5"
  top: "fc6"
  param {
    lr_mult: 1
    decay_mult: 1
  }
  param {
    lr_mult: 2
    decay_mult: 0
  }
  inner_product_param {
    num_output: 4096
    weight_filler {
      type: "gaussian"
      std: 0.005
    }
    bias_filler {
      type: "constant"
      value: 0.1
    }
  }
}
layer {
  name: "relu6"
  type: "ReLU"
  bottom: "fc6"
  top: "fc6"
}
layer {
  name: "drop6"
  type: "Dropout"
  bottom: "fc6"
  top: "fc6"
  dropout_param {
    dropout_ratio: 0.5
  }
}
layer {
  name: "fc7"
  type: "InnerProduct"
  bottom: "fc6"
  top: "fc7"
  param {
    lr_mult: 1
    decay_mult: 1
  }
  param {
    lr_mult: 2
    decay_mult: 0
  }
  inner_product_param {
    num_output: 4096
    weight_filler {
      type: "gaussian"
      std: 0.005
    }
    bias_filler {
      type: "constant"
      value: 0.1
    }
  }
}
layer {
  name: "relu7"
  type: "ReLU"
  bottom: "fc7"
  top: "fc7"
}
layer {
  name: "drop7"
  type: "Dropout"
  bottom: "fc7"
  top: "fc7"
  dropout_param {
    dropout_ratio: 0.5
  }
}
layer {
  name: "fc8_airplanes"
  type: "InnerProduct"
  bottom: "fc7"
  top: "fc8_airplanes"
  param {
    lr_mult: 1
    decay_mult: 1
  }
  param {
    lr_mult: 2
    decay_mult: 0
  }
  inner_product_param {
    num_output: 70
    weight_filler {
      type: "gaussian"
      std: 0.01
    }
    bias_filler {
      type: "constant"
      value: 0
    }
  }
}
layer {
  name: "loss"
  type: "SoftmaxWithLoss"
  bottom: "fc8_airplanes"
  bottom: "label"
  top: "loss"
}
layer {
  name: "accuracy"
  type: "Accuracy"
  bottom: "fc8_airplanes"
  bottom: "label"
  top: "accuracy"
  include {
    phase: TEST
  }
}
layer {
  name: "accuracy_at_1"
  type: "Accuracy"
  bottom: "fc8_airplanes"
  bottom: "label"
  top: "accuracy_at_1"
  include {
    phase: TEST
  }
  accuracy_param {
    top_k: 1
  }
}
layer {
  name: "accuracy_at_5"
  type: "Accuracy"
  bottom: "fc8_airplanes"
  bottom: "label"
  top: "accuracy_at_5"
  include {
    phase: TEST
  }
  accuracy_param {
    top_k: 5
  }
}
I0423 10:09:43.498178 20339 layer_factory.hpp:77] Creating layer data
I0423 10:09:43.498236 20339 db_lmdb.cpp:35] Opened lmdb /home/kb/airplanes_caffe/data/lmdb/val_lmdb
I0423 10:09:43.498247 20339 net.cpp:84] Creating Layer data
I0423 10:09:43.498250 20339 net.cpp:380] data -> data
I0423 10:09:43.498256 20339 net.cpp:380] data -> label
I0423 10:09:43.498261 20339 data_transformer.cpp:25] Loading mean file from: /home/kb/airplanes_caffe/data/lmdb/mean.binaryproto
I0423 10:09:43.499521 20339 data_layer.cpp:45] output data size: 100,3,227,227
I0423 10:09:43.588030 20339 net.cpp:122] Setting up data
I0423 10:09:43.588052 20339 net.cpp:129] Top shape: 100 3 227 227 (15458700)
I0423 10:09:43.588055 20339 net.cpp:129] Top shape: 100 (100)
I0423 10:09:43.588057 20339 net.cpp:137] Memory required for data: 61835200
I0423 10:09:43.588062 20339 layer_factory.hpp:77] Creating layer label_data_1_split
I0423 10:09:43.588083 20339 net.cpp:84] Creating Layer label_data_1_split
I0423 10:09:43.588086 20339 net.cpp:406] label_data_1_split <- label
I0423 10:09:43.588090 20339 net.cpp:380] label_data_1_split -> label_data_1_split_0
I0423 10:09:43.588098 20339 net.cpp:380] label_data_1_split -> label_data_1_split_1
I0423 10:09:43.588101 20339 net.cpp:380] label_data_1_split -> label_data_1_split_2
I0423 10:09:43.588104 20339 net.cpp:380] label_data_1_split -> label_data_1_split_3
I0423 10:09:43.588181 20339 net.cpp:122] Setting up label_data_1_split
I0423 10:09:43.588186 20339 net.cpp:129] Top shape: 100 (100)
I0423 10:09:43.588189 20339 net.cpp:129] Top shape: 100 (100)
I0423 10:09:43.588191 20339 net.cpp:129] Top shape: 100 (100)
I0423 10:09:43.588193 20339 net.cpp:129] Top shape: 100 (100)
I0423 10:09:43.588196 20339 net.cpp:137] Memory required for data: 61836800
I0423 10:09:43.588207 20339 layer_factory.hpp:77] Creating layer conv1
I0423 10:09:43.588217 20339 net.cpp:84] Creating Layer conv1
I0423 10:09:43.588219 20339 net.cpp:406] conv1 <- data
I0423 10:09:43.588222 20339 net.cpp:380] conv1 -> conv1
I0423 10:09:43.595242 20339 net.cpp:122] Setting up conv1
I0423 10:09:43.595252 20339 net.cpp:129] Top shape: 100 96 55 55 (29040000)
I0423 10:09:43.595253 20339 net.cpp:137] Memory required for data: 177996800
I0423 10:09:43.595260 20339 layer_factory.hpp:77] Creating layer relu1
I0423 10:09:43.595275 20339 net.cpp:84] Creating Layer relu1
I0423 10:09:43.595278 20339 net.cpp:406] relu1 <- conv1
I0423 10:09:43.595280 20339 net.cpp:367] relu1 -> conv1 (in-place)
I0423 10:09:43.595645 20339 net.cpp:122] Setting up relu1
I0423 10:09:43.595662 20339 net.cpp:129] Top shape: 100 96 55 55 (29040000)
I0423 10:09:43.595665 20339 net.cpp:137] Memory required for data: 294156800
I0423 10:09:43.595667 20339 layer_factory.hpp:77] Creating layer norm1
I0423 10:09:43.595682 20339 net.cpp:84] Creating Layer norm1
I0423 10:09:43.595696 20339 net.cpp:406] norm1 <- conv1
I0423 10:09:43.595700 20339 net.cpp:380] norm1 -> norm1
I0423 10:09:43.596061 20339 net.cpp:122] Setting up norm1
I0423 10:09:43.596070 20339 net.cpp:129] Top shape: 100 96 55 55 (29040000)
I0423 10:09:43.596071 20339 net.cpp:137] Memory required for data: 410316800
I0423 10:09:43.596073 20339 layer_factory.hpp:77] Creating layer pool1
I0423 10:09:43.596087 20339 net.cpp:84] Creating Layer pool1
I0423 10:09:43.596091 20339 net.cpp:406] pool1 <- norm1
I0423 10:09:43.596093 20339 net.cpp:380] pool1 -> pool1
I0423 10:09:43.596119 20339 net.cpp:122] Setting up pool1
I0423 10:09:43.596124 20339 net.cpp:129] Top shape: 100 96 27 27 (6998400)
I0423 10:09:43.596127 20339 net.cpp:137] Memory required for data: 438310400
I0423 10:09:43.596128 20339 layer_factory.hpp:77] Creating layer conv2
I0423 10:09:43.596133 20339 net.cpp:84] Creating Layer conv2
I0423 10:09:43.596135 20339 net.cpp:406] conv2 <- pool1
I0423 10:09:43.596138 20339 net.cpp:380] conv2 -> conv2
I0423 10:09:43.605262 20339 net.cpp:122] Setting up conv2
I0423 10:09:43.605283 20339 net.cpp:129] Top shape: 100 256 27 27 (18662400)
I0423 10:09:43.605285 20339 net.cpp:137] Memory required for data: 512960000
I0423 10:09:43.605294 20339 layer_factory.hpp:77] Creating layer relu2
I0423 10:09:43.605311 20339 net.cpp:84] Creating Layer relu2
I0423 10:09:43.605314 20339 net.cpp:406] relu2 <- conv2
I0423 10:09:43.605319 20339 net.cpp:367] relu2 -> conv2 (in-place)
I0423 10:09:43.605459 20339 net.cpp:122] Setting up relu2
I0423 10:09:43.605465 20339 net.cpp:129] Top shape: 100 256 27 27 (18662400)
I0423 10:09:43.605468 20339 net.cpp:137] Memory required for data: 587609600
I0423 10:09:43.605470 20339 layer_factory.hpp:77] Creating layer norm2
I0423 10:09:43.605486 20339 net.cpp:84] Creating Layer norm2
I0423 10:09:43.605489 20339 net.cpp:406] norm2 <- conv2
I0423 10:09:43.605492 20339 net.cpp:380] norm2 -> norm2
I0423 10:09:43.605857 20339 net.cpp:122] Setting up norm2
I0423 10:09:43.605865 20339 net.cpp:129] Top shape: 100 256 27 27 (18662400)
I0423 10:09:43.605867 20339 net.cpp:137] Memory required for data: 662259200
I0423 10:09:43.605870 20339 layer_factory.hpp:77] Creating layer pool2
I0423 10:09:43.605885 20339 net.cpp:84] Creating Layer pool2
I0423 10:09:43.605886 20339 net.cpp:406] pool2 <- norm2
I0423 10:09:43.605890 20339 net.cpp:380] pool2 -> pool2
I0423 10:09:43.605916 20339 net.cpp:122] Setting up pool2
I0423 10:09:43.605921 20339 net.cpp:129] Top shape: 100 256 13 13 (4326400)
I0423 10:09:43.605923 20339 net.cpp:137] Memory required for data: 679564800
I0423 10:09:43.605934 20339 layer_factory.hpp:77] Creating layer conv3
I0423 10:09:43.605942 20339 net.cpp:84] Creating Layer conv3
I0423 10:09:43.605953 20339 net.cpp:406] conv3 <- pool2
I0423 10:09:43.605957 20339 net.cpp:380] conv3 -> conv3
I0423 10:09:43.627620 20339 net.cpp:122] Setting up conv3
I0423 10:09:43.627642 20339 net.cpp:129] Top shape: 100 384 13 13 (6489600)
I0423 10:09:43.627645 20339 net.cpp:137] Memory required for data: 705523200
I0423 10:09:43.627655 20339 layer_factory.hpp:77] Creating layer relu3
I0423 10:09:43.627672 20339 net.cpp:84] Creating Layer relu3
I0423 10:09:43.627676 20339 net.cpp:406] relu3 <- conv3
I0423 10:09:43.627679 20339 net.cpp:367] relu3 -> conv3 (in-place)
I0423 10:09:43.627813 20339 net.cpp:122] Setting up relu3
I0423 10:09:43.627820 20339 net.cpp:129] Top shape: 100 384 13 13 (6489600)
I0423 10:09:43.627821 20339 net.cpp:137] Memory required for data: 731481600
I0423 10:09:43.627823 20339 layer_factory.hpp:77] Creating layer conv4
I0423 10:09:43.627840 20339 net.cpp:84] Creating Layer conv4
I0423 10:09:43.627842 20339 net.cpp:406] conv4 <- conv3
I0423 10:09:43.627846 20339 net.cpp:380] conv4 -> conv4
I0423 10:09:43.655586 20339 net.cpp:122] Setting up conv4
I0423 10:09:43.655606 20339 net.cpp:129] Top shape: 100 384 13 13 (6489600)
I0423 10:09:43.655616 20339 net.cpp:137] Memory required for data: 757440000
I0423 10:09:43.655622 20339 layer_factory.hpp:77] Creating layer relu4
I0423 10:09:43.655639 20339 net.cpp:84] Creating Layer relu4
I0423 10:09:43.655656 20339 net.cpp:406] relu4 <- conv4
I0423 10:09:43.655660 20339 net.cpp:367] relu4 -> conv4 (in-place)
I0423 10:09:43.656004 20339 net.cpp:122] Setting up relu4
I0423 10:09:43.656013 20339 net.cpp:129] Top shape: 100 384 13 13 (6489600)
I0423 10:09:43.656014 20339 net.cpp:137] Memory required for data: 783398400
I0423 10:09:43.656016 20339 layer_factory.hpp:77] Creating layer conv5
I0423 10:09:43.656034 20339 net.cpp:84] Creating Layer conv5
I0423 10:09:43.656036 20339 net.cpp:406] conv5 <- conv4
I0423 10:09:43.656040 20339 net.cpp:380] conv5 -> conv5
I0423 10:09:43.668159 20339 net.cpp:122] Setting up conv5
I0423 10:09:43.668181 20339 net.cpp:129] Top shape: 100 256 13 13 (4326400)
I0423 10:09:43.668184 20339 net.cpp:137] Memory required for data: 800704000
I0423 10:09:43.668203 20339 layer_factory.hpp:77] Creating layer relu5
I0423 10:09:43.668211 20339 net.cpp:84] Creating Layer relu5
I0423 10:09:43.668215 20339 net.cpp:406] relu5 <- conv5
I0423 10:09:43.668220 20339 net.cpp:367] relu5 -> conv5 (in-place)
I0423 10:09:43.668565 20339 net.cpp:122] Setting up relu5
I0423 10:09:43.668572 20339 net.cpp:129] Top shape: 100 256 13 13 (4326400)
I0423 10:09:43.668575 20339 net.cpp:137] Memory required for data: 818009600
I0423 10:09:43.668577 20339 layer_factory.hpp:77] Creating layer pool5
I0423 10:09:43.668593 20339 net.cpp:84] Creating Layer pool5
I0423 10:09:43.668596 20339 net.cpp:406] pool5 <- conv5
I0423 10:09:43.668599 20339 net.cpp:380] pool5 -> pool5
I0423 10:09:43.668648 20339 net.cpp:122] Setting up pool5
I0423 10:09:43.668651 20339 net.cpp:129] Top shape: 100 256 6 6 (921600)
I0423 10:09:43.668653 20339 net.cpp:137] Memory required for data: 821696000
I0423 10:09:43.668655 20339 layer_factory.hpp:77] Creating layer fc6
I0423 10:09:43.668671 20339 net.cpp:84] Creating Layer fc6
I0423 10:09:43.668673 20339 net.cpp:406] fc6 <- pool5
I0423 10:09:43.668676 20339 net.cpp:380] fc6 -> fc6
I0423 10:09:44.529678 20339 net.cpp:122] Setting up fc6
I0423 10:09:44.529700 20339 net.cpp:129] Top shape: 100 4096 (409600)
I0423 10:09:44.529703 20339 net.cpp:137] Memory required for data: 823334400
I0423 10:09:44.529709 20339 layer_factory.hpp:77] Creating layer relu6
I0423 10:09:44.529717 20339 net.cpp:84] Creating Layer relu6
I0423 10:09:44.529721 20339 net.cpp:406] relu6 <- fc6
I0423 10:09:44.529736 20339 net.cpp:367] relu6 -> fc6 (in-place)
I0423 10:09:44.529927 20339 net.cpp:122] Setting up relu6
I0423 10:09:44.529933 20339 net.cpp:129] Top shape: 100 4096 (409600)
I0423 10:09:44.529935 20339 net.cpp:137] Memory required for data: 824972800
I0423 10:09:44.529937 20339 layer_factory.hpp:77] Creating layer drop6
I0423 10:09:44.529942 20339 net.cpp:84] Creating Layer drop6
I0423 10:09:44.529944 20339 net.cpp:406] drop6 <- fc6
I0423 10:09:44.529947 20339 net.cpp:367] drop6 -> fc6 (in-place)
I0423 10:09:44.529980 20339 net.cpp:122] Setting up drop6
I0423 10:09:44.529985 20339 net.cpp:129] Top shape: 100 4096 (409600)
I0423 10:09:44.529988 20339 net.cpp:137] Memory required for data: 826611200
I0423 10:09:44.529989 20339 layer_factory.hpp:77] Creating layer fc7
I0423 10:09:44.529994 20339 net.cpp:84] Creating Layer fc7
I0423 10:09:44.529997 20339 net.cpp:406] fc7 <- fc6
I0423 10:09:44.530000 20339 net.cpp:380] fc7 -> fc7
I0423 10:09:44.910662 20339 net.cpp:122] Setting up fc7
I0423 10:09:44.910684 20339 net.cpp:129] Top shape: 100 4096 (409600)
I0423 10:09:44.910687 20339 net.cpp:137] Memory required for data: 828249600
I0423 10:09:44.910693 20339 layer_factory.hpp:77] Creating layer relu7
I0423 10:09:44.910702 20339 net.cpp:84] Creating Layer relu7
I0423 10:09:44.910706 20339 net.cpp:406] relu7 <- fc7
I0423 10:09:44.910720 20339 net.cpp:367] relu7 -> fc7 (in-place)
I0423 10:09:44.911191 20339 net.cpp:122] Setting up relu7
I0423 10:09:44.911200 20339 net.cpp:129] Top shape: 100 4096 (409600)
I0423 10:09:44.911201 20339 net.cpp:137] Memory required for data: 829888000
I0423 10:09:44.911203 20339 layer_factory.hpp:77] Creating layer drop7
I0423 10:09:44.911209 20339 net.cpp:84] Creating Layer drop7
I0423 10:09:44.911234 20339 net.cpp:406] drop7 <- fc7
I0423 10:09:44.911237 20339 net.cpp:367] drop7 -> fc7 (in-place)
I0423 10:09:44.911262 20339 net.cpp:122] Setting up drop7
I0423 10:09:44.911278 20339 net.cpp:129] Top shape: 100 4096 (409600)
I0423 10:09:44.911280 20339 net.cpp:137] Memory required for data: 831526400
I0423 10:09:44.911283 20339 layer_factory.hpp:77] Creating layer fc8_airplanes
I0423 10:09:44.911288 20339 net.cpp:84] Creating Layer fc8_airplanes
I0423 10:09:44.911289 20339 net.cpp:406] fc8_airplanes <- fc7
I0423 10:09:44.911294 20339 net.cpp:380] fc8_airplanes -> fc8_airplanes
I0423 10:09:44.917948 20339 net.cpp:122] Setting up fc8_airplanes
I0423 10:09:44.917955 20339 net.cpp:129] Top shape: 100 70 (7000)
I0423 10:09:44.917958 20339 net.cpp:137] Memory required for data: 831554400
I0423 10:09:44.917961 20339 layer_factory.hpp:77] Creating layer fc8_airplanes_fc8_airplanes_0_split
I0423 10:09:44.917966 20339 net.cpp:84] Creating Layer fc8_airplanes_fc8_airplanes_0_split
I0423 10:09:44.917968 20339 net.cpp:406] fc8_airplanes_fc8_airplanes_0_split <- fc8_airplanes
I0423 10:09:44.917971 20339 net.cpp:380] fc8_airplanes_fc8_airplanes_0_split -> fc8_airplanes_fc8_airplanes_0_split_0
I0423 10:09:44.917975 20339 net.cpp:380] fc8_airplanes_fc8_airplanes_0_split -> fc8_airplanes_fc8_airplanes_0_split_1
I0423 10:09:44.917989 20339 net.cpp:380] fc8_airplanes_fc8_airplanes_0_split -> fc8_airplanes_fc8_airplanes_0_split_2
I0423 10:09:44.917994 20339 net.cpp:380] fc8_airplanes_fc8_airplanes_0_split -> fc8_airplanes_fc8_airplanes_0_split_3
I0423 10:09:44.918051 20339 net.cpp:122] Setting up fc8_airplanes_fc8_airplanes_0_split
I0423 10:09:44.918056 20339 net.cpp:129] Top shape: 100 70 (7000)
I0423 10:09:44.918058 20339 net.cpp:129] Top shape: 100 70 (7000)
I0423 10:09:44.918061 20339 net.cpp:129] Top shape: 100 70 (7000)
I0423 10:09:44.918062 20339 net.cpp:129] Top shape: 100 70 (7000)
I0423 10:09:44.918064 20339 net.cpp:137] Memory required for data: 831666400
I0423 10:09:44.918066 20339 layer_factory.hpp:77] Creating layer loss
I0423 10:09:44.918071 20339 net.cpp:84] Creating Layer loss
I0423 10:09:44.918072 20339 net.cpp:406] loss <- fc8_airplanes_fc8_airplanes_0_split_0
I0423 10:09:44.918074 20339 net.cpp:406] loss <- label_data_1_split_0
I0423 10:09:44.918089 20339 net.cpp:380] loss -> loss
…
